data.pth (torch, 4714 bytes, 6 tensors)

l1.weight f4 [8, 38]
0	0x3ea94946	0.33063716
1	0xbf095dba	-0.5365864
2	0x3ea1817e	0.31544107
3	0x3e0c7bf0	0.13719153
4	0x3e68e0ec	0.22742051
5	0x3e8693a2	0.2628451
6	0x3e6da20f	0.23206352
7	0x3e9110fe	0.28333277
8	0xbf0bd829	-0.5462671
9	0x3ed2c18b	0.41163287
10	0x3db90991	0.09035028
11	0x3e48c0d8	0.19604814
12	0x3ec0869b	0.37602696
13	0xbe6990b3	-0.22809105
14	0x3f812afc	1.0091243
15	0xbe8b871b	-0.27251515
16	0x3eb0f369	0.34560707
17	0x3eff1fbf	0.49828908
18	0x3ecba440	0.3977375
19	0x3e89e640	0.2693348
20	0xbe8e12db	-0.2774876
21	0xbe8b1878	-0.27167106
22	0x3d952a84	0.072835
23	0xbd68297c	-0.056680188
24	0x3edb90b6	0.42883843
25	0x3e77ba30	0.24192119
26	0x3e54633a	0.20740977
27	0x3f015f7c	0.5053632
28	0x3eb9e42d	0.36306897
29	0x3e21bd26	0.1579481
30	0x3e9f3bc5	0.31100288
31	0x3ee6585d	0.4498929
32	0x3e931412	0.2872625
33	0x3effae57	0.49937698
34	0x3ea6ba50	0.3256402
35	0x3eebc8c8	0.4605162
36	0xbe8e79be	-0.27827257
37	0x3efbbcbb	0.49167427
38	0x3f2e7b17	0.6815657
39	0x3cbf6df8	0.023367867
40	0xbe3cbe34	-0.18431932
41	0xbdb01bca	-0.0859905
42	0xbed92e6d	-0.42418233
43	0x3d925a87	0.07146173
44	0xbe11793f	-0.14206408
45	0xbe103fb5	-0.14086802
46	0x3e361e86	0.17785081
47	0x3f0ea5c1	0.5572167
48	0x3e90016f	0.28126094
49	0x3f111500	0.5667267
50	0xbdd1ccbf	-0.1024413
51	0x3e78c1f1	0.24292733
52	0xbf12c6a8	-0.57334375
53	0xbd9b25d3	-0.07575574
54	0xbe5f6f09	-0.218197
55	0xbeb403c3	-0.3515912
56	0xbe6e6027	-0.23278867
57	0xbcb8e924	-0.022572108
58	0xbe12783c	-0.14303678
59	0xbd33c69a	-0.043890573
60	0x3f492fda	0.7858864
61	0x3e8024c7	0.2502806
62	0xbe323ba2	-0.1740556
63	0x3eb30093	0.34961376
64	0x3f0c0a35	0.54703075
65	0x3f5a0981	0.8517075
66	0xbdd2b4d5	-0.10288397
67	0x3eb788e3	0.35846624
68	0x3d368d14	0.044568136
69	0x3f36c4f9	0.71394306
70	0x3e80d9df	0.25166222
71	0x3d5405aa	0.051763214
72	0x3f1cf844	0.61316323
73	0x3d3bfaac	0.045893356
74	0xbe0b917f	-0.13629721
75	0x3f45ee1c	0.7731645
76	0xbece23e3	-0.40261754
77	0xbea13d61	-0.3149214
78	0x3ed2d3ad	0.4117712
79	0x3f00ffba	0.5039021
80	0x3f47017d	0.77736646
81	0x3da1e8ee	0.07905756
82	0x3f1b1d46	0.6059154
83	0x3f013de5	0.5048507
84	0xbeab1796	-0.33416432
85	0x3e10ac8f	0.14128326
86	0xbe35666e	-0.17714855
87	0xbcc284f8	-0.023745045
88	0x3f30a3fa	0.6900021
89	0xbeb59eb1	-0.35472634
90	0xbf283f86	-0.6572193
91	0xbd57fb5b	-0.052729946
92	0x3f09210e	0.5356606
93	0x3f2123d3	0.6294529
94	0x3f55cf63	0.8351957
95	0xbdcdba73	-0.10045328
96	0xbe188246	-0.14893445
97	0xbd76fcb0	-0.060299575
98	0xbefcdbe7	-0.49386522
99	0xbed422c8	-0.41432786
100	0xbda0d534	-0.07853165
101	0x3e9d7a04	0.30757153
102	0xbe9bfa31	-0.30464318
103	0x3f17fcc2	0.5937005
104	0x3f2a460e	0.66513145
105	0xbd5c17bb	-0.05373357
106	0x3de4aa6e	0.111653194
107	0x3eb65c12	0.3561712
108	0x3e82ecb5	0.25571218
109	0xbddb08c4	-0.10695031
110	0xbe83082c	-0.25592172
111	0xbe079813	-0.13241605
112	0xbe217ff8	-0.15771472
113	0x3f020b30	0.5079832
114	0xbec27471	-0.37979463
115	0xbf0bc742	-0.5460092
116	0x3e24d6fc	0.16097635
117	0x3dc17512	0.094461575
118	0x3eca9fc6	0.39575022
119	0x3e7f3e41	0.24926092
120	0x3e30afcf	0.17254566
121	0x3e14451c	0.14479488
122	0xbf0bc780	-0.5460129
123	0xbe17920c	-0.14801806
124	0xbd82a680	-0.063794136
125	0x3d44cfd5	0.048049767
126	0x3e8f4caa	0.27988178
127	0xbe8ea8fb	-0.27863297
128	0x3f752108	0.95753527
129	0xbe99ef1d	-0.3006524
130	0x3e8601f2	0.2617336
131	0x3e87a76d	0.26494923
132	0x3e95f49c	0.29288185
133	0x3ed80ed2	0.42198807
134	0xbe7b3c22	-0.24534658
135	0xbecfdaa1	-0.40596488
136	0xbe206471	-0.15663315
137	0xbe9f2525	-0.31083027
138	0x3ef7e5cd	0.48417512
139	0x3e8fa050	0.28051996
140	0xbe7720af	-0.24133562
141	0x3f248f75	0.642814
142	0x3e8ddc40	0.277071
143	0xbe1a2f9e	-0.15057227
144	0x3ed9bf1d	0.4252862
145	0x3f0c07e3	0.54699534
146	0x3ec1874d	0.3779854
147	0x3ea97b01	0.33101657
148	0xbe2a3cd7	-0.16624771
149	0x3e802a54	0.25032294
150	0xbe0f9837	-0.14022909
151	0x3f0bd1eb	0.54617184
152	0x3ed2adb8	0.41148162
153	0xbdad80a6	-0.08471803
154	0x3cf6628d	0.03007629
155	0xbd08f9e2	-0.03344143
156	0xbde0611c	-0.10956022
157	0xbdf1aa81	-0.11800099
158	0xbdc9a6a0	-0.09846234
159	0xbd8d6258	-0.06903523
160	0xbe05ddb1	-0.1307285
161	0xbe0cde0d	-0.1375658
162	0x3ddc6106	0.10760693
163	0x3e9f815d	0.31153384
164	0xbd90d587	-0.07071977
165	0x3e9fbd11	0.31198934
166	0xbed14a02	-0.40876776
167	0x3d411b3b	0.04714511
168	0xbd066151	-0.032807652
169	0x3c6f885c	0.014619913
170	0xbd89da31	-0.0673107
171	0xbdf73ce3	-0.1207216
172	0x3c92f432	0.017938707
173	0x3c2cc2b6	0.01054447
174	0x3e06f789	0.13180365
175	0x3e10a708	0.14126217
176	0xbe094cd0	-0.13408208
177	0x3edf185d	0.43573275
178	0xbceb42b3	-0.028718328
179	0x3f281249	0.656529
180	0xbdb9f4fe	-0.09079932
181	0x3e1f0ed3	0.15532999
182	0xbc15010a	-0.009094486
183	0x3f28f053	0.65991706
184	0x3e5f6630	0.21816325
185	0x3d00e218	0.03146562
186	0x3ee8355a	0.45353204
187	0x3df24185	0.11828903
188	0x3d957ba8	0.07298976
189	0x3ef49269	0.47767952
190	0x3da50398	0.08057326
191	0xbe0a7382	-0.13520625
192	0xbdc9fc21	-0.09862543
193	0xbdb7c38d	-0.08972845
194	0xbc18f7ed	-0.009336454
195	0xbe0e68d7	-0.1390718
196	0xbe1fb66a	-0.15596929
197	0x3d885b79	0.06658072
198	0x3ca52803	0.02016068
199	0xbdfd5ef0	-0.123716235
200	0x3dcf354c	0.101175874
201	0xbc868ef3	-0.016425585
202	0x3e1e3cb8	0.1545285
203	0x3dcc1d4e	0.09966527
204	0xbdb0324f	-0.086033456
205	0x3cd1e0ab	0.025619825
206	0xbdab1d5e	-0.08355211
207	0xbd2f57cd	-0.042808343
208	0x3d171797	0.03688773
209	0xbd16e0bd	-0.03683542
210	0x3d79e4de	0.06100928
211	0xbd382b48	-0.04496315
212	0xbe1630ef	-0.14667104
213	0xbdff70b1	-0.12472666
214	0x3cd7101d	0.0262528
215	0x3c36df66	0.011161661
216	0x3d0b396d	0.033990312
217	0xbcc1cd11	-0.023657354
218	0xbd73ee7c	-0.05955361
219	0xbdfa5fb3	-0.122252844
220	0x3da65550	0.08121741
221	0xbb9f0ee0	-0.004854068
222	0x3cf707df	0.03015512
223	0x3dfc5014	0.12319961
224	0xbdd64a75	-0.1046342
225	0x3de7af14	0.113126904
226	0x3ddac769	0.10682566
227	0xbd1f7f65	-0.038939852
228	0xbe7c559b	-0.24642031
229	0x3f29a011	0.66259867
230	0xbbf0ee3d	-0.007352619
231	0x3d89a721	0.067213304
232	0x3e059563	0.13045268
233	0x3efb7152	0.49109894
234	0xbcb38990	-0.02191618
235	0x3e0fa57c	0.14027971
236	0x3f3167ff	0.6929931
237	0x3d0b7728	0.034049183
238	0xbea0db83	-0.31417474
239	0xbde06efb	-0.10958668
240	0x3deafdfd	0.11474226
241	0x3d0e53be	0.03474783
242	0x3f32069c	0.69541335
243	0x3eea6041	0.4577656
244	0x3d90b895	0.07066456
245	0x3d0dafbe	0.03459143
246	0x3d81d2b3	0.06339016
247	0x3e9a1fbb	0.30102333
248	0x3eb37b93	0.35055217
249	0x3ebf4dfd	0.37364188
250	0xbed04939	-0.40680864
251	0xbd64ef2e	-0.055892162
252	0x3ee33f3f	0.4438419
253	0xbbfbc9ef	-0.0076839845
254	0xbe97c1c0	-0.29640007
255	0xbf0ced9b	-0.5505006

l1.bias f4 [8]
0	0x3f0cca06	0.54995763
1	0x3f12c714	0.5733502
2	0x3f283f0d	0.6572121
3	0x3f0bc88f	0.54602903
4	0x3ed14a44	0.40876973
5	0xbe2893b2	-0.16462591
6	0x3f4fc58d	0.81160814
7	0x3ef88830	0.48541403

l2.weight f4 [8, 8]
0	0x3f306ff3	0.6892082
1	0x3ea67083	0.32507715
2	0x3f9ef3cb	1.241815
3	0x3f10db0a	0.5658423
4	0x3eebe806	0.46075457
5	0x3eafbfd5	0.34326044
6	0xbefc679f	-0.49297807
7	0xbf87a2b3	-1.0596527
8	0x3e1639a0	0.1467042
9	0x3e9543b4	0.29153216
10	0xbf4226b0	-0.7584028
11	0xbecf3caa	-0.4047597
12	0x3dea951b	0.11454221
13	0xbe973ab1	-0.29536965
14	0x3f89537c	1.0728602
15	0x3fa68850	1.3010349
16	0x3f219044	0.63110757
17	0xbeec748a	-0.46182662
18	0xbf55883d	-0.8341101
19	0x3f7130f1	0.94215304
20	0xbf61301c	-0.87964034
21	0xbd45d1cb	-0.048295777
22	0x3f38d061	0.7219296
23	0x3d12bd46	0.035825036
24	0x3f83cc1a	1.0296662
25	0xbe5ebbfb	-0.21751396
26	0x3f9a70a3	1.2065624
27	0x3f855be7	1.0418671
28	0x3ed54429	0.41653565
29	0xbd5b2760	-0.053504348
30	0x3eee3905	0.46527877
31	0xbf49ee6a	-0.78879416
32	0x3ec97ae8	0.39351583
33	0x3f18fc87	0.59760326
34	0x3e95d504	0.2926408
35	0x3decdbfb	0.115653954
36	0x3f596072	0.8491279
37	0xbc79ae36	-0.015239289
38	0xbf4a9832	-0.7913848
39	0x3eca8125	0.39551654
40	0xbed6942a	-0.41909915
41	0xbd829304	-0.06375697
42	0x3fcb9217	1.5903958
43	0xbeba7882	-0.36420065
44	0x3ef1e6d7	0.4724643
45	0x3e60cd5b	0.21953337
46	0x3f4d3e16	0.8017286
47	0x3f0551b4	0.52077794
48	0x3e1f737c	0.15571398
49	0x3f3e376a	0.74303305
50	0x3e1ce561	0.15321876
51	0x3ea973fa	0.33096296
52	0x3f8c6ea5	1.0971266
53	0xbea29a86	-0.31758517
54	0xbf838d61	-1.027752
55	0x3f789ad9	0.9711128
56	0x3f1d808b	0.61524266
57	0x3f1ec2e7	0.6201615
58	0xbf31ccab	-0.69452924
59	0xbe5aafbf	-0.21356104
60	0x3eb68d3b	0.35654625
61	0x3e807734	0.25090945
62	0xbf467783	-0.7752611
63	0x3f3174a1	0.69318587

l2.bias f4 [8]
0	0x3e94dbfe	0.2907409
1	0x3edbef40	0.4295597
2	0xbe86c0a8	-0.2631886
3	0xbe19c12b	-0.15015094
4	0x3c1ec32d	0.009690088
5	0x3eb36a27	0.35041925
6	0xbec6d59c	-0.38834846
7	0x3e0a690d	0.13516636

l3.weight f4 [5, 8]
0	0xbf4469d8	-0.76724005
1	0x3f497bb3	0.78704375
2	0xbf5f7518	-0.87288046
3	0xbf73528c	-0.9504783
4	0xbf036730	-0.51329327
5	0x3f573775	0.84068996
6	0xbf0da301	-0.5532685
7	0xbf64db07	-0.8939671
8	0x3f54d266	0.8313354
9	0xbf9ae46e	-1.2100961
10	0xbf6dea16	-0.9293531
11	0x3ebcf960	0.36909008
12	0xbcc496d5	-0.023997704
13	0x3f14c982	0.58119977
14	0xbfb20301	-1.3907167
15	0xbf9a19f8	-1.2039175
16	0x3ed33ec2	0.41258818
17	0xbf909872	-1.1296523
18	0xbf7adddb	-0.97994775
19	0xbe018006	-0.12646493
20	0x3f17df2c	0.5932491
21	0xbedeca5d	-0.43513766
22	0x3f54b42f	0.8308744
23	0xbeb289db	-0.348708
24	0xbe7e7d60	-0.24852514
25	0x3e6ea3f6	0.23304734
26	0xbef1229d	-0.4709672
27	0xbf8cb011	-1.0991231
28	0x3f0ad4bb	0.5423085
29	0xbf9db06e	-1.2319467
30	0x3f08fbc3	0.5350916
31	0x3f74079e	0.9532412
32	0xbe95b697	-0.29240867
33	0x3dd9c83c	0.10633895
34	0x3f531824	0.8245871
35	0x3ed5ad53	0.41733798
36	0xbf5f2ef8	-0.87181044
37	0xbf801639	-1.0006782
38	0xbe576996	-0.21036372
39	0xbec77957	-0.38959762

l3.bias f4 [5]
0	0x3f18189c	0.5941255
1	0x3f16ca8b	0.58902806
2	0xbf2a400c	-0.6650398
3	0xbe0ea510	-0.13930154
4	0x3d271fd3	0.040801834
